trained_net_for_CIFAR10.pth (torch, 478597 bytes, 10 tensors)

conv1.weight f4 [16, 3, 5, 5]
0	0x3d932f8e	0.07186805
1	0x3db2e118	0.087343395
2	0x3def14b4	0.11673871
3	0x3d7cd25d	0.061724056
4	0xbce94540	-0.028475404
5	0x3dc4cc16	0.09609239
6	0x3d00daae	0.03145855
7	0x3dff6e7f	0.12472247
8	0x3e337454	0.17524844
9	0xbd6fff56	-0.058593117
10	0xbc93b527	-0.018030716
11	0x3dbc2337	0.09186404
12	0x3dbd607a	0.09246917
13	0x3e81b1c2	0.2533093
14	0x3e0480b9	0.12939729
15	0x3d93f30b	0.07224091
16	0xbdadb5aa	-0.08481915
17	0x3d998a7e	0.074971184
18	0x3be5959c	0.00700636
19	0x3dfaa8ef	0.12239253
20	0xbda7b979	-0.08189673
21	0x3db17a85	0.08665947
22	0x3ba53a7c	0.0050423723
23	0xbd99f678	-0.07517713
24	0x3def0ea2	0.11672713
25	0x3b784b99	0.0037886857
26	0xbcd603a4	-0.026124783
27	0xbd1430bc	-0.03617929
28	0xbe09f233	-0.13471298
29	0xbe03d0c7	-0.12872611
30	0xbd8316e7	-0.06400853
31	0x3cd922d4	0.026505865
32	0xbd2536ae	-0.04033535
33	0x3e1c982d	0.15292425
34	0xbd6cbf93	-0.057799887
35	0xbdd633af	-0.104590766
36	0xbdcbe489	-0.09955699
37	0x3e6d1090	0.2315085
38	0x3e37d000	0.1795044
39	0x3d715fe6	0.058929347
40	0xbdb0644e	-0.086128816
41	0xbdbad693	-0.09122958
42	0x3dcfc177	0.10144322
43	0x3d89a8ec	0.067216724
44	0xbd84880b	-0.06471261
45	0xbdd6e255	-0.10492388
46	0xbca26246	-0.019822251
47	0x3d4e0a53	0.050302815
48	0x3c03693b	0.008020694
49	0x3cc72888	0.024311319
50	0x3e119eb7	0.14220701
51	0x3df84a89	0.121235915
52	0xbd6933d4	-0.056934193
53	0xbde4eb3e	-0.111776814
54	0xbe30e094	-0.1727317
55	0x3d040c95	0.03223856
56	0x3e154ad4	0.14579326
57	0x3e82f0f1	0.2557445
58	0x3e841f91	0.25805333
59	0x3d8119d3	0.06303754
60	0xbde76678	-0.11298841
61	0x39e62bc3	0.00043901624
62	0x3ec34f7d	0.38146582
63	0x3eb01397	0.34389946
64	0x3c62e101	0.01384759
65	0xbe30f409	-0.17280592
66	0xbdabb88c	-0.08384809
67	0x3e1a03d0	0.15040517
68	0x3e8ecc32	0.27890164
69	0x3d2a1ee9	0.041533384
70	0xbda92773	-0.082594775
71	0x3d37cd6a	0.044873632
72	0xbde8baf3	-0.11363783
73	0x3dad3b88	0.0845862
74	0x3e2fa261	0.17151786
75	0x3e947b92	0.29000527
76	0x3f0d13df	0.55108446
77	0x3f5624c3	0.83649844
78	0x3f0c4683	0.5479509
79	0x3df59eed	0.11993203
80	0x3e2658df	0.16244839
81	0x3f0bfc2a	0.54681647
82	0x3f26bcd1	0.6513186
83	0x3e99e9de	0.3006124
84	0x3eb217df	0.34783837
85	0x3e03a924	0.12857491
86	0x3d3b07af	0.045661625
87	0x3e8ca3a6	0.27468604
88	0xbe0b8ac9	-0.13627161
89	0x3cdf0cb5	0.027227739
90	0xbe86425e	-0.2622251
91	0xbed2e33e	-0.41188997
92	0xbd895607	-0.067058615
93	0xbf06cd9d	-0.5265749
94	0xbd8f3fbb	-0.069945775
95	0xbef7e96f	-0.48420283
96	0xbf0cca34	-0.5499604
97	0xbe8c7cbb	-0.27438912
98	0xbf21702e	-0.630618
99	0xbeecb6c7	-0.46233198
100	0x3df8d82b	0.12150606
101	0x3cff8b92	0.031194482
102	0x3dfb69fe	0.12276076
103	0x3d8d4f92	0.068999425
104	0xbb290b20	-0.0025793985
105	0xbe80e8e9	-0.25177696
106	0xbeda8d0e	-0.4268574
107	0xbe85d068	-0.26135564
108	0xbead651e	-0.3386621
109	0xbd9955d9	-0.07487077
110	0xbe6fc23a	-0.23413935
111	0xbebaeb6d	-0.3650774
112	0xbe78d962	-0.24301675
113	0xbeec2188	-0.46119332
114	0xbd86932e	-0.06571041
115	0x3d72fbf0	0.059322298
116	0xbe25577f	-0.16146658
117	0x3e115743	0.14193444
118	0xbe01f044	-0.1268931
119	0x3e2e89ea	0.17044798
120	0x3e108745	0.14114101
121	0xbd8b1696	-0.06791417
122	0x3e085e90	0.13317323
123	0xbd8df9fe	-0.06932448
124	0x3e3f5366	0.18684158
125	0xbd137809	-0.036003146
126	0xbe0805f9	-0.13283528
127	0x3c4666db	0.012109484
128	0xbe90aa13	-0.28254756
129	0x3c691151	0.01422532
130	0xbe24ce4b	-0.1609432
131	0xbf1826f0	-0.59434414
132	0xbea87678	-0.32902884
133	0xbeddac84	-0.4329568
134	0xbe1de0eb	-0.1541783
135	0x3d340ca2	0.04395736
136	0xbea284a0	-0.3174181
137	0x3d4d7a89	0.050165687
138	0xbe63ad65	-0.22234114
139	0xbd952283	-0.07281973
140	0x3e860d00	0.26181793
141	0x3e925783	0.2858239
142	0x3ed42381	0.41433337
143	0x3ea377f1	0.31927446
144	0x3eeb25fe	0.45927423
145	0x3eddf1e4	0.4334861
146	0x3e880386	0.26565188
147	0x3f1f9845	0.6234172
148	0x3e46fb44	0.19431788
149	0x3e7aa205	0.24475868
150	0xbe3294ad	-0.17439528
151	0x3e87859c	0.26469123
152	0x3ee150e0	0.44007015
153	0x3e7b9116	0.24567065
154	0xbd0394e0	-0.0321244
155	0xbf00de9b	-0.5033967
156	0xbf1c77e6	-0.6112045
157	0x3ea3633c	0.31911647
158	0x3ef71347	0.48256895
159	0x3e7984a4	0.24367005
160	0x3e90df8d	0.28295556
161	0xbeec0534	-0.4609772
162	0xbf1342c7	-0.5752377
163	0x3e2742da	0.16334096
164	0x3eff7f30	0.49901724
165	0x3ef303d2	0.47463852
166	0x3e7d1f65	0.24719007
167	0xbf110050	-0.566411
168	0xbea217da	-0.31658822
169	0xbd003023	-0.031295907
170	0xbe557811	-0.20846583
171	0x3f13ff9b	0.578119
172	0x3ebc3416	0.36758488
173	0xbe503f76	-0.20336708
174	0xbe5d0af2	-0.21586207
175	0xbed0a259	-0.4074886
176	0xbd394de8	-0.045240313
177	0x3eac46e7	0.33647844
178	0x3e46cf90	0.19415116
179	0xbc4a65e7	-0.012353397
180	0xbed453be	-0.4147014
181	0xbf297729	-0.6619745
182	0x3e3a8986	0.18216524
183	0x3ef91514	0.48648894
184	0x3e569b97	0.2095779
185	0x3ec8edf6	0.3924405
186	0xbf0df826	-0.5545677
187	0xbf3eef13	-0.7458355
188	0x3e1fb88c	0.15597743
189	0x3ec51972	0.38495976
190	0x3f2a2673	0.6646492
191	0x3e65d629	0.22444977
192	0xbf13fb11	-0.5780497
193	0xbf23e9db	-0.6402871
194	0xbe3db949	-0.18527712
195	0xbe3ad3f0	-0.1824491
196	0x3f0a7c84	0.54096246
197	0x3e3e5bfa	0.18589774
198	0xbe990a2c	-0.29890573
199	0xbeca4e07	-0.39512655
200	0xbe11ee9d	-0.1425118
201	0x3dfeb71c	0.12437269
202	0x3e65b44d	0.2243206
203	0x3dbf4050	0.093384385
204	0xbe40cc93	-0.18828039
205	0xbe2fa70f	-0.17153572
206	0xbefe164b	-0.49626383
207	0x3d5eacd7	0.05436405
208	0x3ec6f80d	0.38861123
209	0x3e642809	0.22280897
210	0x3e51a92a	0.20474687
211	0xbefe2630	-0.4963851
212	0xbf1819da	-0.59414446
213	0x3d440f3a	0.047866084
214	0x3eb84227	0.3598797
215	0x3f2c3f10	0.67283726
216	0x3e540fce	0.20709154
217	0xbeef3422	-0.46719462
218	0xbea3aeff	-0.3196945
219	0x3d6cc79f	0.05780756
220	0x3c0ee2ad	0.008721036
221	0x3f2a4c32	0.66522515
222	0x3e9bb49a	0.30411226
223	0xbde2203a	-0.11041303
224	0xbe86ab65	-0.2630264
225	0x3d92c67b	0.071667634
226	0x3e12b408	0.14326489
227	0x3e8afa93	0.27144298
228	0x3e33b1e8	0.17548335
229	0x3d3b81e4	0.04577817
230	0x3dc1b4fd	0.09458349
231	0x3e912213	0.2834631
232	0x3e6038a4	0.21896607
233	0x3e72c322	0.2370725
234	0xbc735be0	-0.014853448
235	0x3d979f46	0.07403426
236	0xbd18cd89	-0.03730539
237	0xbe13fa0d	-0.14450856
238	0xbc804233	-0.015656566
239	0x3e2ac746	0.1667758
240	0xbd7f8261	-0.0623802
241	0xbe9c378e	-0.30511135
242	0xbe8f8a83	-0.28035364
243	0xbe23d33f	-0.15998553
244	0xbddce9e9	-0.10786802
245	0xbe863091	-0.26208928
246	0xbeabfb4a	-0.33590156
247	0xbeb00de5	-0.343856
248	0xbdc5062c	-0.09620318
249	0x3d370313	0.044680666
250	0x3df202ce	0.11816941
251	0x3c5d8249	0.013519832
252	0x3e3f88be	0.18704507
253	0x3e03564f	0.12825893
254	0x3e18862d	0.14894934
255	0x3d925e3e	0.071468815

conv1.bias f4 [16]
0	0x3c8ca9b4	0.017170765
1	0xbeda15ff	-0.42594907
2	0xbe903cb5	-0.28171316
3	0xbe345f23	-0.17614417
4	0xbe1885b3	-0.14894752
5	0xbe41ec08	-0.18937695
6	0x3f4441e0	0.7666302
7	0xbf406926	-0.75160444
8	0xbe376194	-0.17908317
9	0xbd37b44b	-0.044849675
10	0x3db32853	0.087479256
11	0xbe20d0bf	-0.1570463
12	0xbed36c3e	-0.4129352
13	0x3eb123d2	0.3459764
14	0xbe7955b0	-0.24349093
15	0x3ef8a9b2	0.48566967

conv2.weight f4 [32, 16, 5, 5]
0	0x3d88521d	0.06656287
1	0x3d663546	0.05620315
2	0xbe25c4dd	-0.16188379
3	0xbb0e2fe2	-0.002169602
4	0x3e3671ff	0.17816924
5	0xbd84a91f	-0.0647757
6	0x3d7af0fe	0.061264984
7	0xbda1f64c	-0.079083055
8	0xbd999a78	-0.07500166
9	0xbcea9fc9	-0.028640645
10	0xbd4d37b3	-0.050101947
11	0x3d1469a5	0.036233563
12	0xbb1f47c3	-0.0024304248
13	0xbd1e1737	-0.03859636
14	0x3d733b93	0.059382986
15	0xbddf2afb	-0.1089687
16	0xbd466058	-0.048431724
17	0xbd9a309c	-0.07528803
18	0x3d3ae4cd	0.045628358
19	0xbdbe322b	-0.092869125
20	0xbdb90e19	-0.09035892
21	0xbddf74af	-0.109109275
22	0xbd425a81	-0.047449593
23	0x3de94d7e	0.113917336
24	0x3d0bd8eb	0.034142416
25	0xbda2fe94	-0.07958713
26	0xbd6628a1	-0.05619109
27	0xbc97c8c7	-0.018528355
28	0xbd95ab1f	-0.073080294
29	0xbe34dbcb	-0.1766197
30	0xbd87180a	-0.06596382
31	0xbde72c9d	-0.11287806
32	0xbe0c7869	-0.13717808
33	0xbe84db6a	-0.2594865
34	0xbe4cd209	-0.20001997
35	0xbca8b253	-0.020592844
36	0xbd04af9c	-0.032394037
37	0xbc312177	-0.010811201
38	0x3c15b00f	0.009136214
39	0x3b0fe7e2	0.0021958281
40	0xbbed2666	-0.0072372435
41	0x3d9e8410	0.07740033
42	0x3e1594d6	0.14607558
43	0x3bcb3a1a	0.0062019946
44	0x3cf48a6a	0.029851157
45	0xbdc3893f	-0.09547662
46	0xbd08cac6	-0.033396505
47	0x3de8f929	0.113756485
48	0x3d7179f6	0.0589542
49	0x3c87534c	0.016519211
50	0xbcac9ea9	-0.021071749
51	0x3e5bc1f9	0.21460713
52	0x3ea256be	0.31706804
53	0x3e217e27	0.1577078
54	0x3e12dc94	0.14341956
55	0x3e391411	0.18074061
56	0x3db1a623	0.08674266
57	0x3e4028dc	0.18765587
58	0x3db8246d	0.08991323
59	0x3df5fb33	0.12010803
60	0x3cccab2e	0.024983969
61	0x3e3c3207	0.18378459
62	0x3df390da	0.118928626
63	0x3e478ac0	0.19486523
64	0x3dcd2deb	0.10018524
65	0x3ed2521a	0.41078264
66	0x3df6e9df	0.12056326
67	0x3df7d992	0.12102045
68	0xbe235f5c	-0.15954345
69	0xbce3448f	-0.027742652
70	0x3dc938ed	0.09825311
71	0x3e49d3d8	0.19709718
72	0x3d8058b7	0.06266921
73	0xbd7fa3cf	-0.06241208
74	0xbe3109ff	-0.1728897
75	0x3d4e130a	0.050311126
76	0x3d9292ed	0.0715693
77	0x3d0b9891	0.034081046
78	0x3cdc1b89	0.026868599
79	0xbc9c6cd1	-0.019094856
80	0xbbdc37e7	-0.0067205313
81	0xbb342cb6	-0.002749247
82	0x3dcbf0c6	0.09958033
83	0xbd39b465	-0.045338053
84	0x3c39b129	0.011333742
85	0x3b8834f5	0.0041567036
86	0xbe0263de	-0.12733409
87	0xbd6c74aa	-0.057728447
88	0x3d183e65	0.03716888
89	0xbcfd3930	-0.030911058
90	0x3d8bec28	0.068321526
91	0x3da6cec2	0.08144905
92	0x3d2c7b9f	0.04211008
93	0xbdc939df	-0.09825491
94	0x3cf6ebee	0.030141797
95	0xbd64624b	-0.055757802
96	0x3c8025e4	0.015643068
97	0x3d556bf3	0.0521049
98	0x3bed8fbe	0.0072498014
99	0xbd77864c	-0.06043081
100	0xbd98cbf8	-0.07460779
101	0x3d654a67	0.05597916
102	0xbe00874a	-0.12551609
103	0x3d210da8	0.039319664
104	0xbde07350	-0.10959494
105	0xbdb7df0b	-0.08978089
106	0x3c074242	0.008255543
107	0x3e23311b	0.15936701
108	0xbddee178	-0.108828485
109	0x3bc7a070	0.0060921237
110	0xbdc19b68	-0.094534695
111	0xbe0fd3c3	-0.14045624
112	0x3e70fd40	0.23534107
113	0x3d1e60f7	0.03866669
114	0x3da0f12e	0.078585014
115	0x3dc65686	0.09684472
116	0xbe383dd9	-0.17992343
117	0x3cdac209	0.026703851
118	0x3de442e7	0.11145573
119	0xbd8c5032	-0.068512335
120	0x3d5df575	0.054189164
121	0x3ce122f5	0.02748249
122	0xbdfd3aff	-0.12364768
123	0xbdee6e09	-0.11642081
124	0xbe47730f	-0.19477485
125	0xbdbece3b	-0.09316679
126	0xbcce1d47	-0.025160445
127	0xbceb231e	-0.028703269
128	0xbd64f80f	-0.05590063
129	0xbdd5fc5e	-0.10448526
130	0xbe347c51	-0.17625548
131	0xbc2e73d5	-0.010647734
132	0x3d5d7d11	0.05407435
133	0xbe1e345c	-0.15449661
134	0x3d82e94f	0.06392156
135	0xbe869c63	-0.2629119
136	0x3d42daa8	0.047571808
137	0x3e3c2446	0.18373212
138	0x3d5957fd	0.053062428
139	0xbd111afd	-0.03542613
140	0x3b6cc35d	0.0036127188
141	0xbe24660d	-0.16054554
142	0xbe3dd3dc	-0.18537849
143	0x3da1423d	0.07873962
144	0x3d8c85d0	0.0686146
145	0x3d1f79b1	0.038934413
146	0x3e01f770	0.12692046
147	0xbd48e718	-0.049048513
148	0x3d4ffb20	0.0507766
149	0xbcbf2f58	-0.023338005
150	0x3d4ad66b	0.04952089
151	0xbb9cfc9f	-0.004790857
152	0xbb1640cf	-0.0022926813
153	0x3ce6f392	0.028192315
154	0xbcbc4e2a	-0.02298649
155	0x3df04df3	0.11733618
156	0x3b4d4462	0.0031321277
157	0xbc43f466	-0.011960125
158	0xbda75c20	-0.08171868
159	0x3d4bfe31	0.049802963
160	0x3d10d9b0	0.035363853
161	0xbda1f06e	-0.079071864
162	0xbdeda773	-0.11604204
163	0xbe0b496c	-0.13602227
164	0xbd8ea64f	-0.069653146
165	0x3dfffb50	0.12499106
166	0xbd65ba45	-0.056085844
167	0xbd4bcc7a	-0.04975555
168	0xbd605b76	-0.054774724
169	0xbd906071	-0.07049645
170	0x3ef20fe3	0.47277746
171	0x3dae49d0	0.08510172
172	0x3d3669f6	0.044534646
173	0x3d11d6b8	0.035605162
174	0x3e098091	0.1342795
175	0x3c718e08	0.014743336
176	0x3d8280f2	0.063722506
177	0xbe0f2f67	-0.13982926
178	0xbdcfc1e8	-0.101444066
179	0xbdf632d0	-0.120214105
180	0xbc9d475b	-0.019199064
181	0x3bccb95b	0.006247682
182	0x3a0d6ed7	0.00053952396
183	0xbdaab6a2	-0.08335616
184	0xbdc4afd1	-0.09603847
185	0x3cea6e28	0.02861698
186	0xbddcc9ca	-0.10780676
187	0x3d3fdaa3	0.046839368
188	0x3b1ea22a	0.0024205544
189	0xbd2c786b	-0.042107027
190	0xbcc25b72	-0.023725245
191	0xbc992b15	-0.0186973
192	0xbd3518d3	-0.044213127
193	0xbd67e74e	-0.056617074
194	0xbdd68e61	-0.10476375
195	0xbd247f10	-0.04016024
196	0xbd31d410	-0.04341513
197	0xbe02d3e8	-0.12776148
198	0xbc4c95aa	-0.012486855
199	0xbdd9b275	-0.10629741
200	0xbe66f8f9	-0.22555913
201	0xbe1b3209	-0.15155806
202	0xbe04de8d	-0.12975521
203	0xbd5e4b82	-0.05427123
204	0xbdf7816e	-0.12085234
205	0xbd2f1bf7	-0.04275128
206	0xbd3bfc5b	-0.04589496
207	0x3d17bbc5	0.037044305
208	0x3c491b32	0.01227455
209	0x3d4b01bd	0.049562205
210	0xbd28b579	-0.04118869
211	0xbc50bda5	-0.012740527
212	0x3adbac7b	0.0016759777
213	0xbd1cd741	-0.03829122
214	0x3dd74694	0.105115086
215	0xbda538ed	-0.08067498
216	0xbcb36ac0	-0.021901488
217	0xbdcdd565	-0.100504674
218	0x3cbe91f1	0.02326295
219	0x3db55523	0.08854129
220	0x3d4d533c	0.050128207
221	0x3e2aa34e	0.16663858
222	0xbd07faa0	-0.033198
223	0x3c81a61f	0.015826283
224	0xbcadba2e	-0.021206941
225	0x3e0dba81	0.13840677
226	0x3d5af178	0.05345294
227	0x3c07f522	0.00829819
228	0x3e572a34	0.21012193
229	0xbd7a4595	-0.061101515
230	0x3d2d3cf5	0.04229446
231	0x3e6609bf	0.22464655
232	0x3d48ee3b	0.04905532
233	0x3de9e324	0.11420277
234	0x3c8587fa	0.01630019
235	0xbe45ec1e	-0.19328353
236	0x3e56c6c2	0.20974258
237	0xbd4266ce	-0.047461323
238	0x3c9dff08	0.019286647
239	0x3d6308d6	0.05542835
240	0xbce74c03	-0.028234487
241	0xbd93efa4	-0.07223442
242	0xbda21a06	-0.0791512
243	0x3e4de206	0.20105752
244	0x3da5b45f	0.08091044
245	0x3e9aaaa9	0.30208328
246	0x3ac25a91	0.0014828016
247	0x3bfbefb2	0.007688486
248	0xbd30ca74	-0.043161824
249	0x3d62959f	0.05531847
250	0x3d0d917b	0.03456257
251	0xbcb11377	-0.021615727
252	0x3c9177e9	0.017757373
253	0x3e5775d8	0.21041048
254	0xbd58fb7d	-0.052974213
255	0xbd493fb2	-0.04913301

conv2.bias f4 [32]
0	0x3e3935c4	0.18086916
1	0xbe7430e9	-0.23846783
2	0x3e5257a3	0.20541243
3	0xbd204ad7	-0.039133873
4	0x3e95a7b0	0.29229498
5	0xbef56f1b	-0.4793633
6	0x3c6eabee	0.014567358
7	0x3d62a811	0.055336062
8	0x3e23650c	0.15956515
9	0x3d0cfcc4	0.034420744
10	0x3e90e633	0.28300628
11	0xbe3a288d	-0.18179531
12	0xbdc4ba1e	-0.096058115
13	0x3f0ad8ea	0.54237235
14	0xbf191e17	-0.5981154
15	0x3f348201	0.7051087
16	0x3e85e3d0	0.2615037
17	0x3cf442ad	0.02981695
18	0xbe982d18	-0.29721904
19	0x3e231f88	0.15929997
20	0xbbc14518	-0.005898129
21	0xbec63923	-0.38715467
22	0xbf03d78d	-0.5150078
23	0xbe1d4dc1	-0.15361692
24	0x3e60d96d	0.21957941
25	0x3cfed31c	0.031106524
26	0xbf0080e2	-0.5019666
27	0x3e8c6a2f	0.27424762
28	0xbe2e08e0	-0.16995573
29	0xbe71ee30	-0.23626018
30	0x3eb372d8	0.35048556
31	0x3d8f5165	0.06997947

fc1.weight f4 [120, 800]
0	0x3c6e945a	0.014561737
1	0xbdf41335	-0.11917726
2	0xbdc3c577	-0.09559148
3	0x3d9f584f	0.077805154
4	0xbd50bf64	-0.050963774
5	0xbdb5b334	-0.08872071
6	0x3e0daf70	0.13836455
7	0xbd54689e	-0.051857583
8	0x3c560d71	0.013064728
9	0x3dcb7ddd	0.09936116
10	0xbc6150bb	-0.013752158
11	0x3e0c34e5	0.13692053
12	0x3d0e8854	0.03479798
13	0xbd92c602	-0.07166673
14	0xbceabaaf	-0.02865347
15	0x3c2dad25	0.010600363
16	0xbdfc8d0f	-0.12331592
17	0xbd1456b6	-0.036215506
18	0xbde92bea	-0.11385329
19	0xbe147d4b	-0.1450092
20	0xbd2bc218	-0.04193315
21	0xbcdab7ea	-0.026699025
22	0xbd472b1a	-0.04862509
23	0x3dad8564	0.08472708
24	0x3b20a933	0.0024514913
25	0xbce854aa	-0.028360683
26	0xba3490e6	-0.00068880466
27	0xbbb4cfec	-0.0055179503
28	0x3c80de56	0.015731018
29	0xbe08feb3	-0.1337841
30	0xbe0a6b4a	-0.1351749
31	0xbe0e51b3	-0.13898353
32	0xbe01fc94	-0.12694007
33	0xbdf29231	-0.1184429
34	0xbd9762ec	-0.07391915
35	0xbe00105e	-0.12506244
36	0xbd2bda87	-0.04195645
37	0xbd440135	-0.047852714
38	0xbd6b888b	-0.057503264
39	0xbd1d2a5a	-0.038370468
40	0x3dcc1366	0.099646375
41	0xbd221ee4	-0.03958024
42	0xbd10d515	-0.03535946
43	0x3d41a9b8	0.047280997
44	0x3da1a5ff	0.07892989
45	0x3ba0caa4	0.004906969
46	0xbd6d506d	-0.057938028
47	0xbe10e2ac	-0.14148968
48	0x3df63341	0.12021495
49	0xbdbcefb0	-0.09225404
50	0xbea0ee2e	-0.31431717
51	0xbda16c62	-0.078820005
52	0xbc15ab50	-0.009135082
53	0xbd161273	-0.03663869
54	0xbdd6d30e	-0.10489474
55	0xbd9f9da9	-0.07793743
56	0xbd1f41d6	-0.038881145
57	0xbcbb52f4	-0.022866704
58	0x3c53db65	0.012930726
59	0xbc1dad3a	-0.00962382
60	0xbc9e79d7	-0.019345207
61	0x3d289d18	0.04116544
62	0x3da5e8fd	0.081010796
63	0x3d0d84ba	0.034550406
64	0x3da60ea1	0.08108259
65	0xbd4b20d8	-0.04959187
66	0x3dc33273	0.09531107
67	0x3e0e3e6b	0.13890998
68	0xbbb2d227	-0.005457181
69	0x3b8b3ef6	0.004249449
70	0x3d957a26	0.072986886
71	0xbd90b3aa	-0.07065518
72	0x3e120e56	0.14263281
73	0x3d8d7e43	0.06908848
74	0x3dcbb50b	0.099466406
75	0xbc352b11	-0.011057631
76	0xbb9c0dd7	-0.004762392
77	0xbc55e81d	-0.013055828
78	0x3d22da68	0.03975907
79	0xbd10ec39	-0.03538153
80	0x3af3fe98	0.0018615304
81	0xbdf7ca9f	-0.12099194
82	0x3cb4e199	0.02208023
83	0x3ccc0df7	0.024909003
84	0x3dcd6140	0.100283146
85	0xbd825417	-0.06363695
86	0xbc26e950	-0.010187462
87	0xb9b653c4	-0.00034776155
88	0x3ca6feac	0.020385109
89	0x3d05470e	0.032538466
90	0xbd6f848e	-0.058476023
91	0xbb7fc104	-0.0039024958
92	0xbd8a3a5d	-0.06749413
93	0x3d90104b	0.07034358
94	0xbcd96740	-0.026538491
95	0x3d91b7bf	0.07115125
96	0x3dcb6a72	0.09932412
97	0x3dc31591	0.09525598
98	0xbd5e41a0	-0.054261804
99	0xbca7dc99	-0.020490931
100	0x3e135172	0.14386538
101	0x3b7b75be	0.003836974
102	0xbe03dc5a	-0.12877026
103	0xbe3c2ff6	-0.1837767
104	0xbe024cfd	-0.12724681
105	0x3c70ea15	0.014704247
106	0x3d988690	0.07447541
107	0x3d3a8c45	0.045543928
108	0xbc19b777	-0.00938212
109	0xbd73d8a7	-0.059532788
110	0xbdaf39c2	-0.08555938
111	0x3da26ef0	0.07931316
112	0x3dcfedcd	0.10152779
113	0x3cf178c5	0.029476533
114	0xbd0aa86e	-0.033852033
115	0xbdb8e90e	-0.09028827
116	0xbbc31bfd	-0.005954264
117	0xbd9c6df7	-0.07638162
118	0x3cf680c7	0.030090703
119	0xbcf6f2a7	-0.030145003
120	0xbc88dc83	-0.01670671
121	0xbd0836df	-0.033255454
122	0x3da1b3e1	0.07895637
123	0xbddb2474	-0.10700312
124	0xbda46a3e	-0.080280766
125	0xbceb8837	-0.028751476
126	0x3c4670fc	0.0121118985
127	0x3dfc183d	0.123093106
128	0x3e19d7c9	0.15023722
129	0xbd472410	-0.048618376
130	0xbc3c19ce	-0.011480762
131	0xbcd93d68	-0.026518539
132	0x3cfadc83	0.030622726
133	0x3e202cc3	0.15642075
134	0xbd84bf84	-0.06481841
135	0xbd7052f4	-0.05867286
136	0x3c9b5a84	0.01896406
137	0x3d829305	0.06375698
138	0xbb9c9421	-0.0047784005
139	0x3b5b14ba	0.0033429102
140	0x3c01e969	0.0079291845
141	0xbd42a267	-0.04751816
142	0xbc87e39b	-0.016588023
143	0x3cb65114	0.022255458
144	0xbd1641dc	-0.036683902
145	0x3ca897d8	0.020580217
146	0xbd026a10	-0.03183943
147	0xbdb87c3f	-0.09008073
148	0x3ddd3c70	0.10802543
149	0xbd023ef1	-0.031798307
150	0xbd935904	-0.07194713
151	0xbd024ca4	-0.03181137
152	0x3c2445ce	0.010026408
153	0x3e2643ea	0.16236845
154	0xbd2ed633	-0.042684745
155	0xbd42bd4a	-0.0475438
156	0xbdcf9445	-0.10135702
157	0xbd90c45f	-0.07068705
158	0xbbcfca8e	-0.006341285
159	0x3db7d87b	0.08976837
160	0x3d5bd762	0.053672202
161	0xbd88e122	-0.06683566
162	0xbcb98fac	-0.022651516
163	0x3d58ec03	0.052959453
164	0xbd8eb55d	-0.06968186
165	0x3d599b8f	0.053126868
166	0x3c7aefb5	0.01531594
167	0xbc3fca6b	-0.011705975
168	0x3c21cd82	0.009875657
169	0xbdb602ee	-0.088872775
170	0x3d95145a	0.072792724
171	0x3d143593	0.036183905
172	0x3ca764bf	0.020433782
173	0xbd898674	-0.06715098
174	0xbd1425ef	-0.03616899
175	0x3d1ca2b6	0.03824111
176	0x3dec0895	0.115250744
177	0x3d82bf75	0.06384174
178	0x3d84c265	0.0648239
179	0x3d6aaa61	0.057291392
180	0x3d6a073f	0.057135817
181	0x3c9f9613	0.01948074
182	0x3d55405f	0.052063342
183	0xbda1dca4	-0.07903412
184	0xbdb44b95	-0.08803479
185	0xbd38b754	-0.04509671
186	0xbcfaa708	-0.030597225
187	0x3b7db7c1	0.0038714262
188	0xbd6101c7	-0.054933336
189	0xbd3c1bac	-0.045924827
190	0x3d0c1d94	0.034207895
191	0x3d06797d	0.032830704
192	0x3d9b5581	0.07584668
193	0x3d35fdfd	0.044431675
194	0x3d0632e1	0.032763366
195	0x3dacceb4	0.08437863
196	0xbb762f7b	-0.0037564922
197	0x3d9f1d4f	0.07769262
198	0x3d4ac0ec	0.04950039
199	0xbc6edc31	-0.014578865
200	0x3c8004ad	0.01562723
201	0xbda70898	-0.08155936
202	0x3c48252c	0.012215894
203	0xbd09c502	-0.033635147
204	0x3e10a0ad	0.14123793
205	0xbd280778	-0.041022748
206	0x3bf8a75e	0.007588311
207	0x3d817966	0.06321983
208	0x3b6c356f	0.003604259
209	0x3d7429a6	0.05961003
210	0xbbff7338	-0.0077957176
211	0x3db0f1f7	0.08639901
212	0xbd2b86ff	-0.04187679
213	0xbe0190fa	-0.1265296
214	0x3d391815	0.045188982
215	0x3defb1cf	0.11703836
216	0x3d1c1c59	0.038112972
217	0xbc635b73	-0.013876784
218	0xbde25ab4	-0.110524565
219	0xbcca6913	-0.024708306
220	0xbceade6c	-0.028670512
221	0xbc5bfbfa	-0.013426775
222	0xbdb73e8f	-0.08947479
223	0xbe409e11	-0.18810298
224	0x3d749bbe	0.05971884
225	0x3dc3e237	0.095646314
226	0xbbfafc81	-0.0076594953
227	0xbdde7ad6	-0.10863273
228	0x3d38f5aa	0.04515616
229	0x3de8d812	0.11369337
230	0xbd81c62e	-0.06336628
231	0xbd82c97b	-0.063860856
232	0xbd4d2537	-0.05008432
233	0x3d048d17	0.032361116
234	0x3d4c97e0	0.049949527
235	0x3d066e32	0.032819934
236	0xbc127a9e	-0.008940367
237	0x3dd2a2f8	0.1028499
238	0x3cd09eca	0.025466342
239	0xbbd9b4ac	-0.006643852
240	0xbdd9f4e4	-0.10642412
241	0x3d6ec92e	0.05829733
242	0x3d992dee	0.074794635
243	0x3cccd1ad	0.025002325
244	0x3d2bb065	0.04191627
245	0x3ce6911e	0.02814537
246	0x3db86c26	0.09005003
247	0xbcd32e94	-0.025779046
248	0xbe07d692	-0.13265446
249	0xbd8d0c8e	-0.0688716
250	0xbc6abe39	-0.014327579
251	0xbc96b9c6	-0.01839913
252	0x3cc5b5aa	0.024134476
253	0x3d5a9c21	0.053371552
254	0x3aae2608	0.0013286481
255	0xbcb62081	-0.022232296

fc1.bias f4 [120]
0	0xbc82aa28	-0.015950277
1	0x3de76025	0.11297635
2	0x3c97f30d	0.018548513
3	0x3d801a94	0.062550694
4	0x3e05eca9	0.1307856
5	0xbdc7a115	-0.09747521
6	0xbb018980	-0.0019765794
7	0xbd17c4ed	-0.037053037
8	0x3cdf1131	0.027229877
9	0x3d331b6e	0.04372733
10	0xbd6aa0a3	-0.0572821
11	0xbdda408c	-0.106568426
12	0xbc47ff95	-0.012206932
13	0xbc46e526	-0.012139594
14	0x3bd71cfa	0.0065647336
15	0x3c9b0ed1	0.018927963
16	0x3df827b5	0.121169485
17	0x3d9ce17c	0.07660195
18	0xbdab3a50	-0.083607316
19	0x3c10afc6	0.00883097
20	0xbd9e578b	-0.07731541
21	0xbd1947fd	-0.03742217
22	0x3bc06a3b	0.0058720387
23	0x3d8da768	0.06916696
24	0xbaa4c1ef	-0.0012570004
25	0xbd2f4c2d	-0.042797256
26	0x3d67fb66	0.056636237
27	0x3cbf1d59	0.023329424
28	0x3b7c28aa	0.0038476386
29	0x3ceb9b4f	0.02876058
30	0x3cf3a0c0	0.029739738
31	0x3e09e20a	0.13465133
32	0xbdb3bad7	-0.08775871
33	0x3e0b2143	0.13586907
34	0xbcce8bc9	-0.02521314
35	0x3d9088e9	0.070573635
36	0x3d6b315e	0.057420127
37	0xbb0ed6f4	-0.0021795603
38	0x3ce70438	0.028200254
39	0xbd8c4d91	-0.06850732
40	0x3cce90e3	0.025215572
41	0x3e19e609	0.15029158
42	0x3c359a12	0.0110840965
43	0xbdb56102	-0.088563934
44	0x3d2122df	0.039339896
45	0x3d3e1ae6	0.04641237
46	0x3e3691c5	0.17829044
47	0x3c858cd1	0.016302498
48	0x3db867bd	0.090041615
49	0x3cbdafd6	0.023155134
50	0x3d498580	0.04919958
51	0x3bab3fd0	0.005226113
52	0xbd25b086	-0.04045155
53	0x3dc4c27b	0.09607407
54	0x3d7bbcd0	0.061459363
55	0x3ca90dcb	0.02063646
56	0x3d6b06aa	0.057379402
57	0x3e33ec6f	0.17570661
58	0x3bb7ed17	0.00561298
59	0x3b1e79b9	0.002418144
60	0xbd072bf8	-0.033000916
61	0x3d6b8ac6	0.05750539
62	0x3dadcad8	0.08485955
63	0x3e033a65	0.12815244
64	0x3d09bd4b	0.03362779
65	0xbce620b5	-0.028091768
66	0xbbc83d4c	-0.006110823
67	0x3bbb6b9f	0.0057196165
68	0x3b9b673e	0.004742532
69	0xbcc00c59	-0.023443388
70	0x3d509863	0.050926577
71	0x3be13fa3	0.006874041
72	0x3c12d865	0.008962725
73	0xbd87841f	-0.06616997
74	0x3cb55711	0.022136243
75	0xbd5edac6	-0.054407857
76	0x3e5c20a3	0.21496825
77	0xbcd64afc	-0.026158802
78	0x3dbbf883	0.09178259
79	0x3e2f3209	0.1710893
80	0x3cf60620	0.030032218
81	0x3ac4e796	0.0015022631
82	0xbdcb88f6	-0.099382326
83	0xbaed5ecc	-0.0018109917
84	0x3dd108a8	0.10206729
85	0x3e726182	0.23670009
86	0xbe30931e	-0.17243621
87	0x3cd1836b	0.02557536
88	0xbdbb734b	-0.0915285
89	0x3dc7e398	0.09760207
90	0xbc172628	-0.009225406
91	0xbd2f7a2d	-0.042841125
92	0x3c789b1a	0.015173698
93	0xbc433527	-0.011914528
94	0x3c5fe4f4	0.0136654265
95	0xbca109ea	-0.019658048
96	0x3d54a03c	0.051910624
97	0xbce1e725	-0.027576039
98	0x3d48ab2c	0.048991367
99	0x3db0ba64	0.08629301
100	0x3bd73c0e	0.0065684384
101	0xbdd9f04b	-0.10641535
102	0xbcbe8bb9	-0.023259984
103	0xbe00f8d6	-0.12594923
104	0x3ca0473b	0.019565215
105	0x3e26750d	0.16255589
106	0x3e2c7d53	0.16844682
107	0x3e1b9e1a	0.1519703
108	0xbde34527	-0.11097174
109	0x3cfb968e	0.030711439
110	0xbb133914	-0.002246444
111	0x3e13c8d4	0.14432079
112	0xbc28b38d	-0.0102967145
113	0xbd8a3f12	-0.06750311
114	0x3cd1f3a9	0.025628882
115	0x3d0f3f10	0.03497225
116	0x3d85feb1	0.06542719
117	0x3d2b145f	0.041767474
118	0x3dbbebcf	0.09175836
119	0x3da1200c	0.078674406

fc2.weight f4 [64, 120]
0	0xbd9ac05d	-0.07556222
1	0x3e1a9db2	0.15099218
2	0xbe2acfed	-0.1668088
3	0x3e2d1b84	0.16905028
4	0x3ddb71e2	0.10715081
5	0x3dc84c77	0.097802095
6	0x3da37df7	0.0798301
7	0x3d933c2f	0.071892135
8	0x3dd8190a	0.10551651
9	0xbdbedbc5	-0.093192615
10	0xbd3aa324	-0.04556574
11	0xbcda1744	-0.026622422
12	0xbe8cd279	-0.27504328
13	0xbd001c66	-0.031277083
14	0xbd401539	-0.04689524
15	0x3e1ef57b	0.15523331
16	0x3da23c77	0.07921689
17	0xbdd53c0a	-0.10411842
18	0xbd090544	-0.033452287
19	0xbd8ff78f	-0.0702964
20	0xbae3bc71	-0.0017374886
21	0x3c9b999a	0.018994141
22	0xbde5f523	-0.11228397
23	0x3e0b74f5	0.13618834
24	0x3e023103	0.12714009
25	0x3e13bbe5	0.14427145
26	0xbca9fa5f	-0.020749269
27	0x3e306f3a	0.1722993
28	0x3e5a35f8	0.2130965
29	0x3e1bd11c	0.15216488
30	0x3d0c0fb9	0.03419468
31	0xbe14d67d	-0.14534946
32	0xbe176737	-0.14785467
33	0xbd4fa6da	-0.05069623
34	0x3e30c498	0.17262495
35	0x3e9cff8b	0.30663714
36	0xbd5f4210	-0.05450636
37	0xbc9b2700	-0.018939495
38	0xbdb5f809	-0.088851996
39	0x3db36c98	0.08760947
40	0xbe434281	-0.19068338
41	0x3d83633e	0.06415413
42	0xbd8f4d61	-0.06997181
43	0xbd9d1a2e	-0.07671009
44	0x3e062275	0.13099082
45	0xbdcafa07	-0.0991097
46	0x3e3b434a	0.18287387
47	0x3dade01b	0.0849001
48	0x3c9ddb3b	0.019269576
49	0xbdd7987b	-0.1052713
50	0xbd543a9e	-0.051813714
51	0x3e36e4e3	0.17860751
52	0x3d6cf763	0.057853114
53	0x3d823591	0.06357873
54	0x3dc683a4	0.09693077
55	0xbe0371c6	-0.1283637
56	0x3c9b1b06	0.018933784
57	0x3e235c8e	0.15953276
58	0x3e522dc4	0.2052527
59	0x3d30e256	0.0431846
60	0x3db82017	0.08990496
61	0x3d45e70f	0.048316058
62	0xbe2eb45a	-0.17060986
63	0xbdce0ef0	-0.10061443
64	0x3e3e4daa	0.18584314
65	0xbadba1a4	-0.0016756547
66	0x3d53e654	0.05173333
67	0xbe141065	-0.14459379
68	0xbe4738fe	-0.19455335
69	0x3e02e081	0.12780954
70	0x3e85938e	0.26089138
71	0xbd6168bf	-0.055031534
72	0xbe08f65b	-0.13375227
73	0x3d9b245a	0.07575293
74	0xbc4386fd	-0.011934039
75	0xbc6e09b0	-0.014528677
76	0x3d904f84	0.070464164
77	0xbdfced78	-0.12349981
78	0xbdc75cef	-0.097345226
79	0xbdbd87c8	-0.09254414
80	0xbe1b4d85	-0.1516629
81	0x3da769e3	0.08174493
82	0xbdcf00f1	-0.101076014
83	0xbc76ec2f	-0.015070959
84	0x3d1d63fe	0.038425438
85	0x3d8e20a2	0.06939818
86	0xbe6b2984	-0.22965056
87	0xbd916c2e	-0.07100712
88	0x3d7dd38d	0.06196933
89	0xb8049a8c	-3.1615185e-05
90	0xbe3162c2	-0.1732283
91	0xbdb27147	-0.08713012
92	0x3d974c68	0.0738762
93	0xbda48806	-0.08033757
94	0xbdbc7ad3	-0.09203114
95	0x3d3481d0	0.04406911
96	0x3e27f895	0.1640342
97	0x3db7aa2a	0.08968003
98	0xbd36f29d	-0.044664968
99	0x3e075f3c	0.13219923
100	0xbddf9972	-0.10917939
101	0x3da5dd8e	0.08098899
102	0x3d423190	0.047410548
103	0xbdcca831	-0.099930175
104	0x3c3cb86f	0.011518582
105	0xbd1f6a12	-0.038919516
106	0x3e09c90f	0.13455604
107	0xbde12a11	-0.10994352
108	0xbcc6a0c3	-0.024246579
109	0x3d0c5c41	0.034267668
110	0x3c7e1ae1	0.015509338
111	0xbc6a8f66	-0.014316415
112	0xbe0e4ffa	-0.13897696
113	0x3d172920	0.036904454
114	0xbdd5a970	-0.10432708
115	0xbe0e6471	-0.13905503
116	0x3e08301f	0.13299607
117	0xbdc539a5	-0.096301354
118	0xbd58d5e3	-0.052938353
119	0xbd259713	-0.04042728
120	0xbcbf855d	-0.023379022
121	0x3d479fce	0.048736386
122	0x3dc1975d	0.094526984
123	0x3d4645b5	0.04840632
124	0x3d831e14	0.06402221
125	0x3dfda0a8	0.123841584
126	0x3e33b39d	0.17548986
127	0xbdbcccd9	-0.09218759
128	0xbde1eb5b	-0.110312186
129	0x3d2d0551	0.0422414
130	0xbcd7d102	-0.02634478
131	0x3d9deba6	0.07710962
132	0x3ccc6d02	0.024954323
133	0xbddce8e6	-0.10786609
134	0xbcd86999	-0.02641754
135	0xbdd4e555	-0.10395304
136	0xbe076743	-0.13222985
137	0x3d0001b2	0.031251617
138	0xbd3416f9	-0.04396722
139	0xbdbe8cd0	-0.093042016
140	0x3e6b4cee	0.22978565
141	0x3da9b33d	0.0828614
142	0x3b39c031	0.0028343315
143	0x3df5b598	0.11997527
144	0x3e4fbca8	0.2028681
145	0x3e6426a0	0.2228036
146	0x3dd7e489	0.105416365
147	0x3dd78a19	0.10524387
148	0x3cc4f8a4	0.024044342
149	0x3ca82b31	0.020528408
150	0xbe3ba0bc	-0.18323034
151	0xbdae3a24	-0.08507183
152	0x3e462438	0.19349754
153	0xbc817baa	-0.015806038
154	0x3e33623d	0.17517944
155	0xbd3cb0ad	-0.04606693
156	0x3e46532f	0.1936767
157	0xbe0bde72	-0.13659075
158	0x3d5cee70	0.05393833
159	0xbe39ae4d	-0.18132897
160	0x3bbcb7f0	0.0057592317
161	0x3c83b369	0.01607676
162	0x3d6ec469	0.05829278
163	0xbc1e58bd	-0.009664712
164	0xbd2b47f2	-0.04181666
165	0x3de73645	0.11289648
166	0x3d73a76a	0.05948583
167	0x3e0bb5ae	0.13643524
168	0x3e0d4408	0.13795483
169	0x3d83aeb4	0.06429806
170	0x3e0a515f	0.13507603
171	0x3dd715e8	0.10502225
172	0xbcbeb984	-0.02328182
173	0x3df1e506	0.11811261
174	0x3d48a6b0	0.04898709
175	0x3e3a562f	0.18196939
176	0x3d204712	0.039130278
177	0x3d017edd	0.031615127
178	0xbcaa7876	-0.020809393
179	0x3dd32601	0.10309983
180	0x3dc926cb	0.09821852
181	0x3dae068a	0.08497341
182	0x3d414d57	0.047192898
183	0xbd2264a8	-0.039646775
184	0xbd526113	-0.05136211
185	0x3d6e7fb3	0.058227252
186	0x3dc55035	0.09634439
187	0x3dd97e15	0.10619751
188	0xbe27484f	-0.16336177
189	0x3e0e95f7	0.13924395
190	0xbda8d76c	-0.082442135
191	0xbdce35af	-0.10068833
192	0xbdbe7f82	-0.09301664
193	0x3ce4972a	0.027904112
194	0xbd12a8a4	-0.03580536
195	0xbe62c197	-0.22144161
196	0x3cc4cd5d	0.024023706
197	0xbd80ed66	-0.0629528
198	0xbd9274c4	-0.071511775
199	0x3dbbeffc	0.09176633
200	0x3d10546c	0.03523676
201	0x3da3403c	0.07971236
202	0xbe19ce3e	-0.15020081
203	0xbd0795d2	-0.033101864
204	0x3d79b73d	0.060965765
205	0x3d705269	0.058672342
206	0x3c4fef36	0.01269131
207	0x3ca6dc5a	0.020368744
208	0xbe19c985	-0.1501828
209	0x3e103134	0.1408127
210	0xbd82e9a3	-0.06392219
211	0xbcaf3a3d	-0.021390075
212	0x3c45a3b6	0.0120629575
213	0x3d50c769	0.050971422
214	0xbd21f487	-0.03953984
215	0x3ddaaeb0	0.1067785
216	0xbe7f859c	-0.24953312
217	0xbe0453db	-0.12922613
218	0x3e02f673	0.12789325
219	0xbb8a7825	-0.004225748
220	0x3d67e487	0.056614425
221	0x3dcdaebf	0.10043096
222	0x3e00afa1	0.12566997
223	0xbd640a42	-0.055673845
224	0xbdd88f90	-0.105742574
225	0x3c9cc3cb	0.01913633
226	0xbe3e1d06	-0.18565759
227	0x3dcc85fe	0.099864945
228	0xbd8fbba0	-0.070182085
229	0xbdde67fe	-0.10859679
230	0xbdb6cf1e	-0.08926223
231	0xbd3eb0e2	-0.046555407
232	0xbcbf0fc6	-0.023322951
233	0xbce4b93d	-0.02792036
234	0x3d765a4f	0.06014472
235	0xbe2b8584	-0.16750151
236	0xbd4c6927	-0.04990497
237	0xbd85d3a3	-0.06534507
238	0xbc44a871	-0.01200305
239	0x3bc47509	0.005995397
240	0x3a68bf7c	0.0008878631
241	0xbd02c39b	-0.031924825
242	0xbcda3d8c	-0.026640676
243	0x3d8b5b64	0.06804541
244	0x3cd22887	0.02565409
245	0x3c1e3cac	0.00965802
246	0xbdc3703c	-0.095428914
247	0x3d9e1267	0.07718354
248	0x3d307c9d	0.04308759
249	0x3c9bf972	0.019039843
250	0x3d8ead8d	0.06966696
251	0xbdd2046a	-0.10254748
252	0x3de2199e	0.11040042
253	0xbdd65b43	-0.104666255
254	0x3d82cd74	0.06386843
255	0xbd0bab31	-0.034098808

fc2.bias f4 [64]
0	0x3dfd615e	0.12372087
1	0x3d8cf1b7	0.06882041
2	0xbd9c79ab	-0.07640394
3	0xbd88c66f	-0.06678473
4	0x3c800ea1	0.015631976
5	0x3e31dfe0	0.17370558
6	0xbdbd48a3	-0.0924237
7	0x3dbb226d	0.091374256
8	0x3d81f106	0.063448
9	0x3c554830	0.013017699
10	0x3dcd73a4	0.10031822
11	0xbd9aa3c0	-0.07550764
12	0x3d4f9992	0.050683565
13	0x3dae6f43	0.08517315
14	0xbd56fbeb	-0.05248634
15	0x3e3e285b	0.18570082
16	0x3e46c118	0.19409597
17	0x3e44e028	0.19226134
18	0xbe0534ed	-0.13008471
19	0x3db85e3f	0.09002351
20	0xbdde939f	-0.10868
21	0x3dd2011f	0.1025412
22	0x3e549e80	0.20763588
23	0x3d890ea5	0.06692246
24	0x3ceffe73	0.029296136
25	0x3ddc120e	0.10745631
26	0xbd6bf4d5	-0.057606537
27	0xbd194d5f	-0.037427302
28	0xbd3e2a49	-0.046427045
29	0xbd1c1bee	-0.038112573
30	0xbb697202	-0.0035620932
31	0x3e8a53da	0.270171
32	0xbcb54a02	-0.022130016
33	0x3d257942	0.040398844
34	0x3d4d3623	0.050100457
35	0x3da9792b	0.08275064
36	0x3e546fba	0.20745745
37	0x3c4e51d1	0.012592749
38	0xbadbcb3e	-0.0016768945
39	0x3d4a504b	0.04939298
40	0x3da26486	0.079293296
41	0x3e2593ab	0.16169612
42	0xbe017212	-0.1264117
43	0xbdab44b4	-0.083627135
44	0x3e948272	0.29005772
45	0xbd832a83	-0.06404593
46	0x3d28ff3b	0.04125903
47	0xbd9bc0fe	-0.0760517
48	0x3d74194b	0.059594434
49	0xbd5ffc2d	-0.054683853
50	0x3b8fa9f8	0.0043842755
51	0xbb481209	-0.0030528328
52	0x3dc0fdad	0.09423385
53	0x3e1d7ad6	0.1537889
54	0x3d7a4318	0.06109914
55	0xbdabe508	-0.083932936
56	0x3d2267d3	0.039649796
57	0x3c3bde73	0.01146661
58	0x3d6d1731	0.057883445
59	0xbc8d0250	-0.017213017
60	0x3cdae054	0.026718296
61	0x3d6eef7c	0.05833386
62	0x3e848032	0.25879055
63	0x3c6ee626	0.014581239

fc3.weight f4 [10, 64]
0	0xbdfb70be	-0.12277363
1	0xbee5c1ac	-0.44874322
2	0x3e90dfe0	0.28295803
3	0x3d601401	0.054706577
4	0x3e976945	0.29572502
5	0x3e350af2	0.17679957
6	0x3d6ecdaa	0.058301605
7	0x3e143944	0.1447497
8	0xbe0a55b3	-0.13509254
9	0x3ea2530a	0.3170398
10	0xbdfd526b	-0.123692356
11	0x3ce54b0d	0.027989889
12	0xbeaca883	-0.33722314
13	0xbe086808	-0.13320935
14	0x3d7fb0a5	0.06242432
15	0x3eb95cdd	0.36203662
16	0x3ec8ebc2	0.3924237
17	0x3e4c1c4b	0.19932668
18	0x3e8b2cc3	0.27182588
19	0x3eb83b3c	0.35982692
20	0xbde6b93e	-0.11265801
21	0x3e1e2307	0.1544305
22	0xbe6fc5b8	-0.23415267
23	0x3f1ea816	0.6197523
24	0xbee48450	-0.44632196
25	0xbe4b3082	-0.19842723
26	0xbdf6c841	-0.12049914
27	0xbcc52052	-0.024063263
28	0xbd78c26d	-0.060732294
29	0x3e8071e0	0.2508688
30	0x3e23ea8e	0.16007444
31	0x3e58acad	0.2115962
32	0x3e0ae270	0.13562942
33	0xbe5dc830	-0.21658397
34	0x3bc3f66f	0.005980305
35	0x3dbc1393	0.09183421
36	0xbec0dc3a	-0.3766802
37	0x3b1a054c	0.0023501692
38	0xbf1117b3	-0.5667679
39	0x3f379263	0.71707743
40	0xbe8e723e	-0.27821535
41	0xbeb4ebff	-0.353363
42	0xbd8441e5	-0.06457881
43	0x3e8e28aa	0.277654
44	0xbeee4ae1	-0.46541503
45	0x3ea9ee84	0.33189785
46	0x3f17fd00	0.5937042
47	0x3f20456e	0.6260594
48	0x3e95602d	0.2917494
49	0xbe8095b4	-0.25114214
50	0x3ea7f876	0.32806748
51	0x3d394f6b	0.045241755
52	0x3bb7d991	0.0056106527
53	0x3c918b76	0.017766695
54	0x3ddca61f	0.107738726
55	0x3ca8800b	0.020568868
56	0xbec576f8	-0.38567328
57	0xbf13337a	-0.5750042
58	0x3e59ed71	0.21281983
59	0x3eaaa33c	0.33327663
60	0x3ed965a8	0.4246037
61	0xbd565e8a	-0.052336253
62	0xbe643bc7	-0.22288428
63	0x3e7bee59	0.24602641
64	0xbcd62fe6	-0.026145887
65	0x3d9ee704	0.077589065
66	0x3d427c94	0.04748209
67	0xbd697cd2	-0.057003804
68	0xbe266aa7	-0.16251622
69	0xbe5dcdda	-0.21660557
70	0xbd404eeb	-0.046950262
71	0xbdc64925	-0.0968192
72	0xbc98c15a	-0.018646885
73	0xbcbc664d	-0.022998
74	0xbcc88e7b	-0.024482002
75	0xbd07c796	-0.033149324
76	0x3e3f5156	0.18683371
77	0xbd9d753c	-0.07688376
78	0xb990e9b9	-0.00027639957
79	0xbe943f49	-0.28954533
80	0xbf1791d8	-0.59206915
81	0xbe153b9a	-0.14573517
82	0x3ed477cb	0.41497645
83	0xbbd9d178	-0.006647285
84	0x3e859b21	0.26094916
85	0xbe8f6d33	-0.28013
86	0xbe41521e	-0.18878981
87	0xbe159b56	-0.14610037
88	0x3e870027	0.26367304
89	0xbeb76e8e	-0.35826534
90	0x3afad22b	0.0019136121
91	0x3f23f0c6	0.64039266
92	0x3de336f3	0.11094465
93	0x3cfe1027	0.031013561
94	0x39bc7fc6	0.00035953353
95	0x3c628f0a	0.0138280485
96	0xbe02dc92	-0.12779453
97	0x3e305cbc	0.17222875
98	0xbefe0f09	-0.49620846
99	0xbe3aa0cd	-0.18225403
100	0xbeed7d59	-0.46384695
101	0xbbc4dfd0	-0.006008126
102	0x3efbf285	0.49208465
103	0xbea77ac3	-0.32710847
104	0xbda27551	-0.079325326
105	0xbe77d302	-0.24201587
106	0xbdddd413	-0.108314656
107	0x3ed305d5	0.41215387
108	0xbf0f87b3	-0.56066436
109	0xbe9dfb08	-0.30855584
110	0xbd38a3ca	-0.045078076
111	0x3dcd1f09	0.10015685
112	0x3e007257	0.12543617
113	0xbd9b7d1b	-0.07592221
114	0x3e968432	0.29397732
115	0xbdd9ebd2	-0.10640682
116	0xbde83db0	-0.11339891
117	0xbf04dfb3	-0.5190384
118	0x3f17f5b9	0.5935932
119	0xbeb41c80	-0.35177994
120	0x3f0662b5	0.52494365
121	0x3eefaef4	0.46813166
122	0xbe64a52f	-0.22328638
123	0x3bdc0a3d	0.0067150877
124	0xbe54a852	-0.20767334
125	0xbf2d3b03	-0.6766817
126	0xbe4c2764	-0.19936901
127	0x3f1097ce	0.56481636
128	0x3ec51dbc	0.38499248
129	0x3e5f898b	0.21829812
130	0x3e2965aa	0.16542688
131	0x3e6596ba	0.22420779
132	0x3f257357	0.6462912
133	0xbebc79dd	-0.36811724
134	0x3de54688	0.111950934
135	0xbea3d38e	-0.3199734
136	0xbe70a118	-0.23498952
137	0x3e6daad9	0.23209704
138	0x3e1de8ce	0.15420839
139	0xbdfc1e3e	-0.12310456
140	0xbea80a9e	-0.328206
141	0x3e2057a6	0.15658435
142	0xbd8fcc33	-0.0702137
143	0x3f270197	0.652368
144	0x3e8860cf	0.2663636
145	0xbd7e55a7	-0.062093403
146	0xbd0a94ce	-0.033833317
147	0xbdcae317	-0.09906595
148	0x3937d95d	0.00017533214
149	0x3e932a12	0.28743035
150	0x3e816e3c	0.25279415
151	0x3e1a2105	0.15051658
152	0x3dedaf6e	0.11605726
153	0xbc9a62e4	-0.018845983
154	0x3ec1279e	0.37725538
155	0xbeff092e	-0.4981169
156	0xbdf499d3	-0.11943402
157	0xbde41fb2	-0.11138858
158	0xbd971961	-0.073778875
159	0xbf228643	-0.6348612
160	0xbea23cc6	-0.3168699
161	0x3ec657e1	0.3873892
162	0x3eb5c9c5	0.355055
163	0x3e7526e8	0.23940623
164	0xbe7c159b	-0.24617617
165	0xbd894376	-0.0670232
166	0x3f1095ae	0.56478393
167	0xbd85d139	-0.06534047
168	0x3f263fd9	0.64941174
169	0xbc17adbc	-0.00925773
170	0xbd9a8c5e	-0.07546304
171	0x3f1f22ba	0.62162364
172	0xbedf277f	-0.4358482
173	0xbf1542f7	-0.58305305
174	0x3de72f76	0.11288349
175	0xbe1fc870	-0.15603805
176	0xbf1f5130	-0.6223326
177	0xbdb107af	-0.08644044
178	0x3e988d3a	0.29795247
179	0xbbf8c690	-0.00759203
180	0xbe352004	-0.17687994
181	0x3e7fa8ca	0.24966732
182	0xbeb64092	-0.35596138
183	0x3f38cdb0	0.72188854
184	0xbe706a90	-0.2347815
185	0x3e95439b	0.2915314
186	0x3eff6113	0.4987875
187	0x3e9fa2e6	0.3117897
188	0xbe1fcc21	-0.15605213
189	0xbe713d35	-0.23558505
190	0xbdc0c730	-0.09412992
191	0xbe308bb6	-0.17240795
192	0x3d17285f	0.036903735
193	0xbd658478	-0.056034535
194	0x3bd92807	0.006627086
195	0x3e4c8ee6	0.19976386
196	0xbed05a1b	-0.40693745
197	0xbef8a5ed	-0.4856409
198	0x3e624d77	0.22099863
199	0xbed7f921	-0.42182258
200	0x3f04beb1	0.5185347
201	0x3dcd1535	0.100138105
202	0xbf0c9475	-0.5491403
203	0xbd2c861b	-0.04212008
204	0xbd930377	-0.07178395
205	0xbf08394b	-0.5321242
206	0xbe72a040	-0.23693943
207	0xbe54e751	-0.20791365
208	0x3e096bea	0.13420072
209	0xbe13aa3f	-0.14420412
210	0x3de7cef9	0.11318774
211	0x3ee163b1	0.4402137
212	0xbe61e7d1	-0.22061087
213	0xbe01c03b	-0.12670986
214	0x3e92ea91	0.28694585
215	0xbe476022	-0.19470266
216	0x3c973b03	0.018460756
217	0x3d660cd3	0.056164574
218	0x3e13278b	0.14370553
219	0xbe994258	-0.2993343
220	0x3eaacb8c	0.3335842
221	0x3e8141af	0.25245425
222	0x3eddebe2	0.43344027
223	0xbe7f819d	-0.24951787
224	0xbe281ac3	-0.16416459
225	0x3d3f5351	0.046710316
226	0x3e9e5cf2	0.30930287
227	0x3e2083b9	0.15675248
228	0x3ebb9f7d	0.36645117
229	0xbb4ed9f2	-0.003156301
230	0xbd51b77f	-0.051200386
231	0x3d976c98	0.073937595
232	0xbd96799c	-0.07347414
233	0x3d17bb8a	0.037044086
234	0xbebaf93b	-0.36518273
235	0x3dda02ef	0.10645091
236	0x3f08dd42	0.5346261
237	0x3da18ad6	0.07887809
238	0x3dfc375b	0.12315246
239	0xbe5e4c88	-0.21708882
240	0x3e9cdec8	0.3063872
241	0xbe840434	-0.25784457
242	0x3eb5ab03	0.35482034
243	0xbef613c1	-0.48061946
244	0x3eecb940	0.46235085
245	0x3ea9d185	0.33167663
246	0xbeb82498	-0.3596542
247	0xbf190477	-0.5977244
248	0x3ed8572e	0.42254013
249	0x3d98dbee	0.07463823
250	0xbeb46bdc	-0.3523854
251	0xbf07c636	-0.5303682
252	0xbe9badb5	-0.30405965
253	0x3f0cc403	0.5498659
254	0x3ee28c40	0.44247627
255	0xbeb2d08a	-0.34924728

fc3.bias f4 [10]
0	0xbe5593ea	-0.20857206
1	0xbe7bbc82	-0.24583629
2	0xbcd2f149	-0.02574982
3	0x3d2c5857	0.042076435
4	0x3ef32199	0.4748657
5	0xbde115e8	-0.109905064
6	0xbcf296b5	-0.029612878
7	0xbe0146c6	-0.12624654
8	0x3e41acbe	0.18913552
9	0xbe38d4d3	-0.18049936
